…
__________________________________________________________________________________________________
elu_6 (ELU)                     (None, 128, 128, 128 0           batch_normalization_6[0][0]      
__________________________________________________________________________________________________
concatenate_3 (Concatenate)     (None, 128, 128, 448 0           concatenate_2[0][0]              
                                                                 elu_6[0][0]                      
__________________________________________________________________________________________________
conv2d_8 (Conv2D)               (None, 64, 64, 256)  1032448     concatenate_3[0][0]              
__________________________________________________________________________________________________
batch_normalization_7 (BatchNor (None, 64, 64, 256)  1024        conv2d_8[0][0]                   
__________________________________________________________________________________________________
elu_7 (ELU)                     (None, 64, 64, 256)  0           batch_normalization_7[0][0]      
__________________________________________________________________________________________________
conv2d_9 (Conv2D)               (None, 64, 64, 256)  590080      elu_7[0][0]                      
__________________________________________________________________________________________________
batch_normalization_8 (BatchNor (None, 64, 64, 256)  1024        conv2d_9[0][0]                   
__________________________________________________________________________________________________
max_pooling2d_3 (MaxPooling2D)  (None, 64, 64, 448)  0           concatenate_3[0][0]              
__________________________________________________________________________________________________
elu_8 (ELU)                     (None, 64, 64, 256)  0           batch_normalization_8[0][0]      
__________________________________________________________________________________________________
concatenate_4 (Concatenate)     (None, 64, 64, 704)  0           max_pooling2d_3[0][0]            
                                                                 elu_8[0][0]                      
__________________________________________________________________________________________________
conv2d_10 (Conv2D)              (None, 64, 64, 256)  1622272     concatenate_4[0][0]              
__________________________________________________________________________________________________
batch_normalization_9 (BatchNor (None, 64, 64, 256)  1024        conv2d_10[0][0]                  
__________________________________________________________________________________________________
elu_9 (ELU)                     (None, 64, 64, 256)  0           batch_normalization_9[0][0]      
__________________________________________________________________________________________________
conv2d_11 (Conv2D)              (None, 64, 64, 256)  590080      elu_9[0][0]                      
__________________________________________________________________________________________________
batch_normalization_10 (BatchNo (None, 64, 64, 256)  1024        conv2d_11[0][0]                  
__________________________________________________________________________________________________
elu_10 (ELU)                    (None, 64, 64, 256)  0           batch_normalization_10[0][0]     
__________________________________________________________________________________________________
concatenate_5 (Concatenate)     (None, 64, 64, 960)  0           concatenate_4[0][0]              
                                                                 elu_10[0][0]                     
__________________________________________________________________________________________________
conv2d_12 (Conv2D)              (None, 64, 64, 256)  2212096     concatenate_5[0][0]              
__________________________________________________________________________________________________
batch_normalization_11 (BatchNo (None, 64, 64, 256)  1024        conv2d_12[0][0]                  
__________________________________________________________________________________________________
elu_11 (ELU)                    (None, 64, 64, 256)  0           batch_normalization_11[0][0]     
__________________________________________________________________________________________________
conv2d_13 (Conv2D)              (None, 64, 64, 256)  590080      elu_11[0][0]                     
__________________________________________________________________________________________________
batch_normalization_12 (BatchNo (None, 64, 64, 256)  1024        conv2d_13[0][0]                  
__________________________________________________________________________________________________
elu_12 (ELU)                    (None, 64, 64, 256)  0           batch_normalization_12[0][0]     
__________________________________________________________________________________________________
concatenate_6 (Concatenate)     (None, 64, 64, 1216) 0           concatenate_5[0][0]              
                                                                 elu_12[0][0]                     
__________________________________________________________________________________________________
conv2d_14 (Conv2D)              (None, 64, 64, 512)  5603840     concatenate_6[0][0]              
__________________________________________________________________________________________________
batch_normalization_13 (BatchNo (None, 64, 64, 512)  2048        conv2d_14[0][0]                  
__________________________________________________________________________________________________
elu_13 (ELU)                    (None, 64, 64, 512)  0           batch_normalization_13[0][0]     
__________________________________________________________________________________________________
conv2d_15 (Conv2D)              (None, 64, 64, 512)  2359808     elu_13[0][0]                     
__________________________________________________________________________________________________
batch_normalization_14 (BatchNo (None, 64, 64, 512)  2048        conv2d_15[0][0]                  
__________________________________________________________________________________________________
elu_14 (ELU)                    (None, 64, 64, 512)  0           batch_normalization_14[0][0]     
__________________________________________________________________________________________________
concatenate_7 (Concatenate)     (None, 64, 64, 1728) 0           concatenate_6[0][0]              
                                                                 elu_14[0][0]                     
__________________________________________________________________________________________________
conv2d_16 (Conv2D)              (None, 64, 64, 512)  7963136     concatenate_7[0][0]              
__________________________________________________________________________________________________
batch_normalization_15 (BatchNo (None, 64, 64, 512)  2048        conv2d_16[0][0]                  
__________________________________________________________________________________________________
elu_15 (ELU)                    (None, 64, 64, 512)  0           batch_normalization_15[0][0]     
__________________________________________________________________________________________________
conv2d_17 (Conv2D)              (None, 64, 64, 512)  2359808     elu_15[0][0]                     
__________________________________________________________________________________________________
batch_normalization_16 (BatchNo (None, 64, 64, 512)  2048        conv2d_17[0][0]                  
__________________________________________________________________________________________________
elu_16 (ELU)                    (None, 64, 64, 512)  0           batch_normalization_16[0][0]     
__________________________________________________________________________________________________
concatenate_8 (Concatenate)     (None, 64, 64, 2240) 0           concatenate_7[0][0]              
                                                                 elu_16[0][0]                     
__________________________________________________________________________________________________
conv2d_18 (Conv2D)              (None, 64, 64, 512)  10322432    concatenate_8[0][0]              
__________________________________________________________________________________________________
batch_normalization_17 (BatchNo (None, 64, 64, 512)  2048        conv2d_18[0][0]                  
__________________________________________________________________________________________________
elu_17 (ELU)                    (None, 64, 64, 512)  0           batch_normalization_17[0][0]     
__________________________________________________________________________________________________
conv2d_19 (Conv2D)              (None, 64, 64, 512)  2359808     elu_17[0][0]                     
__________________________________________________________________________________________________
batch_normalization_18 (BatchNo (None, 64, 64, 512)  2048        conv2d_19[0][0]                  
__________________________________________________________________________________________________
elu_18 (ELU)                    (None, 64, 64, 512)  0           batch_normalization_18[0][0]     
__________________________________________________________________________________________________
concatenate_9 (Concatenate)     (None, 64, 64, 2752) 0           concatenate_8[0][0]              
                                                                 elu_18[0][0]                     
__________________________________________________________________________________________________
conv2d_20 (Conv2D)              (None, 64, 64, 512)  12681728    concatenate_9[0][0]              
__________________________________________________________________________________________________
batch_normalization_19 (BatchNo (None, 64, 64, 512)  2048        conv2d_20[0][0]                  
__________________________________________________________________________________________________
elu_19 (ELU)                    (None, 64, 64, 512)  0           batch_normalization_19[0][0]     
__________________________________________________________________________________________________
conv2d_21 (Conv2D)              (None, 64, 64, 512)  2359808     elu_19[0][0]                     
__________________________________________________________________________________________________
batch_normalization_20 (BatchNo (None, 64, 64, 512)  2048        conv2d_21[0][0]                  
__________________________________________________________________________________________________
elu_20 (ELU)                    (None, 64, 64, 512)  0           batch_normalization_20[0][0]     
__________________________________________________________________________________________________
concatenate_10 (Concatenate)    (None, 64, 64, 3264) 0           concatenate_9[0][0]              
                                                                 elu_20[0][0]                     
__________________________________________________________________________________________________
conv2d_22 (Conv2D)              (None, 64, 64, 512)  15041024    concatenate_10[0][0]             
__________________________________________________________________________________________________
batch_normalization_21 (BatchNo (None, 64, 64, 512)  2048        conv2d_22[0][0]                  
__________________________________________________________________________________________________
elu_21 (ELU)                    (None, 64, 64, 512)  0           batch_normalization_21[0][0]     
__________________________________________________________________________________________________
conv2d_23 (Conv2D)              (None, 64, 64, 512)  2359808     elu_21[0][0]                     
__________________________________________________________________________________________________
batch_normalization_22 (BatchNo (None, 64, 64, 512)  2048        conv2d_23[0][0]                  
__________________________________________________________________________________________________
elu_22 (ELU)                    (None, 64, 64, 512)  0           batch_normalization_22[0][0]     
__________________________________________________________________________________________________
concatenate_11 (Concatenate)    (None, 64, 64, 3776) 0           concatenate_10[0][0]             
                                                                 elu_22[0][0]                     
__________________________________________________________________________________________________
conv2d_24 (Conv2D)              (None, 64, 64, 512)  17400320    concatenate_11[0][0]             
__________________________________________________________________________________________________
batch_normalization_23 (BatchNo (None, 64, 64, 512)  2048        conv2d_24[0][0]                  
__________________________________________________________________________________________________
elu_23 (ELU)                    (None, 64, 64, 512)  0           batch_normalization_23[0][0]     
__________________________________________________________________________________________________
conv2d_25 (Conv2D)              (None, 64, 64, 512)  2359808     elu_23[0][0]                     
__________________________________________________________________________________________________
batch_normalization_24 (BatchNo (None, 64, 64, 512)  2048        conv2d_25[0][0]                  
__________________________________________________________________________________________________
elu_24 (ELU)                    (None, 64, 64, 512)  0           batch_normalization_24[0][0]     
__________________________________________________________________________________________________
concatenate_12 (Concatenate)    (None, 64, 64, 4288) 0           concatenate_11[0][0]             
                                                                 elu_24[0][0]                     
__________________________________________________________________________________________________
conv2d_26 (Conv2D)              (None, 64, 64, 512)  19759616    concatenate_12[0][0]             
__________________________________________________________________________________________________
batch_normalization_25 (BatchNo (None, 64, 64, 512)  2048        conv2d_26[0][0]                  
__________________________________________________________________________________________________
elu_25 (ELU)                    (None, 64, 64, 512)  0           batch_normalization_25[0][0]     
__________________________________________________________________________________________________
conv2d_27 (Conv2D)              (None, 64, 64, 1024) 4719616     elu_25[0][0]                     
__________________________________________________________________________________________________
batch_normalization_26 (BatchNo (None, 64, 64, 1024) 4096        conv2d_27[0][0]                  
__________________________________________________________________________________________________
elu_26 (ELU)                    (None, 64, 64, 1024) 0           batch_normalization_26[0][0]     
__________________________________________________________________________________________________
concatenate_13 (Concatenate)    (None, 64, 64, 5312) 0           concatenate_12[0][0]             
                                                                 elu_26[0][0]                     
__________________________________________________________________________________________________
conv2d_28 (Conv2D)              (None, 64, 64, 512)  24478208    concatenate_13[0][0]             
__________________________________________________________________________________________________
batch_normalization_27 (BatchNo (None, 64, 64, 512)  2048        conv2d_28[0][0]                  
__________________________________________________________________________________________________
elu_27 (ELU)                    (None, 64, 64, 512)  0           batch_normalization_27[0][0]     
__________________________________________________________________________________________________
conv2d_29 (Conv2D)              (None, 64, 64, 1024) 4719616     elu_27[0][0]                     
__________________________________________________________________________________________________
batch_normalization_28 (BatchNo (None, 64, 64, 1024) 4096        conv2d_29[0][0]                  
__________________________________________________________________________________________________
elu_28 (ELU)                    (None, 64, 64, 1024) 0           batch_normalization_28[0][0]     
__________________________________________________________________________________________________
concatenate_14 (Concatenate)    (None, 64, 64, 6336) 0           concatenate_13[0][0]             
                                                                 elu_28[0][0]                     
__________________________________________________________________________________________________
conv2d_30 (Conv2D)              (None, 64, 64, 512)  29196800    concatenate_14[0][0]             
__________________________________________________________________________________________________
batch_normalization_29 (BatchNo (None, 64, 64, 512)  2048        conv2d_30[0][0]                  
__________________________________________________________________________________________________
elu_29 (ELU)                    (None, 64, 64, 512)  0           batch_normalization_29[0][0]     
__________________________________________________________________________________________________
conv2d_31 (Conv2D)              (None, 64, 64, 1024) 4719616     elu_29[0][0]                     
__________________________________________________________________________________________________
batch_normalization_30 (BatchNo (None, 64, 64, 1024) 4096        conv2d_31[0][0]                  
__________________________________________________________________________________________________
elu_30 (ELU)                    (None, 64, 64, 1024) 0           batch_normalization_30[0][0]     
__________________________________________________________________________________________________
concatenate_15 (Concatenate)    (None, 64, 64, 7360) 0           concatenate_14[0][0]             
                                                                 elu_30[0][0]                     
__________________________________________________________________________________________________
conv2d_32 (Conv2D)              (None, 64, 64, 512)  3768832     concatenate_15[0][0]             
__________________________________________________________________________________________________
batch_normalization_31 (BatchNo (None, 64, 64, 512)  2048        conv2d_32[0][0]                  
__________________________________________________________________________________________________
elu_31 (ELU)                    (None, 64, 64, 512)  0           batch_normalization_31[0][0]     
__________________________________________________________________________________________________
conv2d_33 (Conv2D)              (None, 64, 64, 1024) 4719616     elu_31[0][0]                     
__________________________________________________________________________________________________
batch_normalization_32 (BatchNo (None, 64, 64, 1024) 4096        conv2d_33[0][0]                  
__________________________________________________________________________________________________
elu_32 (ELU)                    (None, 64, 64, 1024) 0           batch_normalization_32[0][0]     
__________________________________________________________________________________________________
conv2d_34 (Conv2D)              (None, 64, 64, 2048) 2099200     elu_32[0][0]                     
__________________________________________________________________________________________________
batch_normalization_33 (BatchNo (None, 64, 64, 2048) 8192        conv2d_34[0][0]                  
__________________________________________________________________________________________________
elu_33 (ELU)                    (None, 64, 64, 2048) 0           batch_normalization_33[0][0]     
__________________________________________________________________________________________________
concatenate_16 (Concatenate)    (None, 64, 64, 9408) 0           concatenate_15[0][0]             
                                                                 elu_33[0][0]                     
__________________________________________________________________________________________________
conv2d_35 (Conv2D)              (None, 64, 64, 1024) 9634816     concatenate_16[0][0]             
__________________________________________________________________________________________________
batch_normalization_34 (BatchNo (None, 64, 64, 1024) 4096        conv2d_35[0][0]                  
__________________________________________________________________________________________________
elu_34 (ELU)                    (None, 64, 64, 1024) 0           batch_normalization_34[0][0]     
__________________________________________________________________________________________________
conv2d_36 (Conv2D)              (None, 64, 64, 2048) 18876416    elu_34[0][0]                     
__________________________________________________________________________________________________
batch_normalization_35 (BatchNo (None, 64, 64, 2048) 8192        conv2d_36[0][0]                  
__________________________________________________________________________________________________
elu_35 (ELU)                    (None, 64, 64, 2048) 0           batch_normalization_35[0][0]     
__________________________________________________________________________________________________
conv2d_37 (Conv2D)              (None, 64, 64, 4096) 8392704     elu_35[0][0]                     
__________________________________________________________________________________________________
batch_normalization_36 (BatchNo (None, 64, 64, 4096) 16384       conv2d_37[0][0]                  
__________________________________________________________________________________________________
elu_36 (ELU)                    (None, 64, 64, 4096) 0           batch_normalization_36[0][0]     
__________________________________________________________________________________________________
concatenate_17 (Concatenate)    (None, 64, 64, 13504 0           concatenate_16[0][0]             
                                                                 elu_36[0][0]                     
__________________________________________________________________________________________________
conv2d_transpose_3 (Conv2DTrans (None, 512, 512, 64) 221249600   concatenate_17[0][0]             
__________________________________________________________________________________________________
conv2d_transpose_1 (Conv2DTrans (None, 512, 512, 64) 65600       max_pooling2d_1[0][0]            
__________________________________________________________________________________________________
conv2d_transpose_2 (Conv2DTrans (None, 512, 512, 64) 1835072     concatenate_3[0][0]              
__________________________________________________________________________________________________
add_1 (Add)                     (None, 512, 512, 64) 0           conv2d_transpose_3[0][0]         
                                                                 conv2d_transpose_1[0][0]         
                                                                 conv2d_transpose_2[0][0]         
__________________________________________________________________________________________________
conv2d_38 (Conv2D)              (None, 512, 512, 32) 18464       add_1[0][0]                      
__________________________________________________________________________________________________
conv2d_39 (Conv2D)              (None, 512, 512, 16) 4624        conv2d_38[0][0]                  
__________________________________________________________________________________________________
activation_1 (Activation)       (None, 512, 512, 16) 0           conv2d_39[0][0]                  
==================================================================================================
Total params: 449,269,360
Trainable params: 449,221,744
Non-trainable params: 47,616
__________________________________________________________________________________________________
